SEResNet(
  (pre): Sequential(
    (0): Conv2d(1, 64, kernel_size=(3, 3), stride=(1, 1), padding=(1, 1))
    (1): BatchNorm2d(64, eps=1e-05, momentum=0.1, affine=True, track_running_stats=True)
    (2): ReLU(inplace=True)
  )
  (stage1): Sequential(
    (0): BasicResidualSEBlock(
      (residual): Sequential(
        (0): Conv2d(64, 64, kernel_size=(3, 3), stride=(1, 1), padding=(1, 1))
        (1): BatchNorm2d(64, eps=1e-05, momentum=0.1, affine=True, track_running_stats=True)
        (2): ReLU(inplace=True)
        (3): Conv2d(64, 64, kernel_size=(3, 3), stride=(1, 1), padding=(1, 1))
        (4): BatchNorm2d(64, eps=1e-05, momentum=0.1, affine=True, track_running_stats=True)
        (5): ReLU(inplace=True)
      )
      (shortcut): Sequential()
      (squeeze): AdaptiveAvgPool2d(output_size=1)
      (excitation): Sequential(
        (0): Linear(in_features=64, out_features=4, bias=True)
        (1): ReLU(inplace=True)
        (2): Linear(in_features=4, out_features=64, bias=True)
        (3): Sigmoid()
      )
    )
    (1): BasicResidualSEBlock(
      (residual): Sequential(
        (0): Conv2d(64, 64, kernel_size=(3, 3), stride=(1, 1), padding=(1, 1))
        (1): BatchNorm2d(64, eps=1e-05, momentum=0.1, affine=True, track_running_stats=True)
        (2): ReLU(inplace=True)
        (3): Conv2d(64, 64, kernel_size=(3, 3), stride=(1, 1), padding=(1, 1))
        (4): BatchNorm2d(64, eps=1e-05, momentum=0.1, affine=True, track_running_stats=True)
        (5): ReLU(inplace=True)
      )
      (shortcut): Sequential()
      (squeeze): AdaptiveAvgPool2d(output_size=1)
      (excitation): Sequential(
        (0): Linear(in_features=64, out_features=4, bias=True)
        (1): ReLU(inplace=True)
        (2): Linear(in_features=4, out_features=64, bias=True)
        (3): Sigmoid()
      )
    )
    (2): BasicResidualSEBlock(
      (residual): Sequential(
        (0): Conv2d(64, 64, kernel_size=(3, 3), stride=(1, 1), padding=(1, 1))
        (1): BatchNorm2d(64, eps=1e-05, momentum=0.1, affine=True, track_running_stats=True)
        (2): ReLU(inplace=True)
        (3): Conv2d(64, 64, kernel_size=(3, 3), stride=(1, 1), padding=(1, 1))
        (4): BatchNorm2d(64, eps=1e-05, momentum=0.1, affine=True, track_running_stats=True)
        (5): ReLU(inplace=True)
      )
      (shortcut): Sequential()
      (squeeze): AdaptiveAvgPool2d(output_size=1)
      (excitation): Sequential(
        (0): Linear(in_features=64, out_features=4, bias=True)
        (1): ReLU(inplace=True)
        (2): Linear(in_features=4, out_features=64, bias=True)
        (3): Sigmoid()
      )
    )
  )
  (stage2): Sequential(
    (0): BasicResidualSEBlock(
      (residual): Sequential(
        (0): Conv2d(64, 128, kernel_size=(3, 3), stride=(2, 2), padding=(1, 1))
        (1): BatchNorm2d(128, eps=1e-05, momentum=0.1, affine=True, track_running_stats=True)
        (2): ReLU(inplace=True)
        (3): Conv2d(128, 128, kernel_size=(3, 3), stride=(1, 1), padding=(1, 1))
        (4): BatchNorm2d(128, eps=1e-05, momentum=0.1, affine=True, track_running_stats=True)
        (5): ReLU(inplace=True)
      )
      (shortcut): Sequential(
        (0): Conv2d(64, 128, kernel_size=(1, 1), stride=(2, 2))
        (1): BatchNorm2d(128, eps=1e-05, momentum=0.1, affine=True, track_running_stats=True)
      )
      (squeeze): AdaptiveAvgPool2d(output_size=1)
      (excitation): Sequential(
        (0): Linear(in_features=128, out_features=8, bias=True)
        (1): ReLU(inplace=True)
        (2): Linear(in_features=8, out_features=128, bias=True)
        (3): Sigmoid()
      )
    )
    (1): BasicResidualSEBlock(
      (residual): Sequential(
        (0): Conv2d(128, 128, kernel_size=(3, 3), stride=(1, 1), padding=(1, 1))
        (1): BatchNorm2d(128, eps=1e-05, momentum=0.1, affine=True, track_running_stats=True)
        (2): ReLU(inplace=True)
        (3): Conv2d(128, 128, kernel_size=(3, 3), stride=(1, 1), padding=(1, 1))
        (4): BatchNorm2d(128, eps=1e-05, momentum=0.1, affine=True, track_running_stats=True)
        (5): ReLU(inplace=True)
      )
      (shortcut): Sequential()
      (squeeze): AdaptiveAvgPool2d(output_size=1)
      (excitation): Sequential(
        (0): Linear(in_features=128, out_features=8, bias=True)
        (1): ReLU(inplace=True)
        (2): Linear(in_features=8, out_features=128, bias=True)
        (3): Sigmoid()
      )
    )
    (2): BasicResidualSEBlock(
      (residual): Sequential(
        (0): Conv2d(128, 128, kernel_size=(3, 3), stride=(1, 1), padding=(1, 1))
        (1): BatchNorm2d(128, eps=1e-05, momentum=0.1, affine=True, track_running_stats=True)
        (2): ReLU(inplace=True)
        (3): Conv2d(128, 128, kernel_size=(3, 3), stride=(1, 1), padding=(1, 1))
        (4): BatchNorm2d(128, eps=1e-05, momentum=0.1, affine=True, track_running_stats=True)
        (5): ReLU(inplace=True)
      )
      (shortcut): Sequential()
      (squeeze): AdaptiveAvgPool2d(output_size=1)
      (excitation): Sequential(
        (0): Linear(in_features=128, out_features=8, bias=True)
        (1): ReLU(inplace=True)
        (2): Linear(in_features=8, out_features=128, bias=True)
        (3): Sigmoid()
      )
    )
    (3): BasicResidualSEBlock(
      (residual): Sequential(
        (0): Conv2d(128, 128, kernel_size=(3, 3), stride=(1, 1), padding=(1, 1))
        (1): BatchNorm2d(128, eps=1e-05, momentum=0.1, affine=True, track_running_stats=True)
        (2): ReLU(inplace=True)
        (3): Conv2d(128, 128, kernel_size=(3, 3), stride=(1, 1), padding=(1, 1))
        (4): BatchNorm2d(128, eps=1e-05, momentum=0.1, affine=True, track_running_stats=True)
        (5): ReLU(inplace=True)
      )
      (shortcut): Sequential()
      (squeeze): AdaptiveAvgPool2d(output_size=1)
      (excitation): Sequential(
        (0): Linear(in_features=128, out_features=8, bias=True)
        (1): ReLU(inplace=True)
        (2): Linear(in_features=8, out_features=128, bias=True)
        (3): Sigmoid()
      )
    )
  )
  (stage3): Sequential(
    (0): BasicResidualSEBlock(
      (residual): Sequential(
        (0): Conv2d(128, 256, kernel_size=(3, 3), stride=(2, 2), padding=(1, 1))
        (1): BatchNorm2d(256, eps=1e-05, momentum=0.1, affine=True, track_running_stats=True)
        (2): ReLU(inplace=True)
        (3): Conv2d(256, 256, kernel_size=(3, 3), stride=(1, 1), padding=(1, 1))
        (4): BatchNorm2d(256, eps=1e-05, momentum=0.1, affine=True, track_running_stats=True)
        (5): ReLU(inplace=True)
      )
      (shortcut): Sequential(
        (0): Conv2d(128, 256, kernel_size=(1, 1), stride=(2, 2))
        (1): BatchNorm2d(256, eps=1e-05, momentum=0.1, affine=True, track_running_stats=True)
      )
      (squeeze): AdaptiveAvgPool2d(output_size=1)
      (excitation): Sequential(
        (0): Linear(in_features=256, out_features=16, bias=True)
        (1): ReLU(inplace=True)
        (2): Linear(in_features=16, out_features=256, bias=True)
        (3): Sigmoid()
      )
    )
    (1): BasicResidualSEBlock(
      (residual): Sequential(
        (0): Conv2d(256, 256, kernel_size=(3, 3), stride=(1, 1), padding=(1, 1))
        (1): BatchNorm2d(256, eps=1e-05, momentum=0.1, affine=True, track_running_stats=True)
        (2): ReLU(inplace=True)
        (3): Conv2d(256, 256, kernel_size=(3, 3), stride=(1, 1), padding=(1, 1))
        (4): BatchNorm2d(256, eps=1e-05, momentum=0.1, affine=True, track_running_stats=True)
        (5): ReLU(inplace=True)
      )
      (shortcut): Sequential()
      (squeeze): AdaptiveAvgPool2d(output_size=1)
      (excitation): Sequential(
        (0): Linear(in_features=256, out_features=16, bias=True)
        (1): ReLU(inplace=True)
        (2): Linear(in_features=16, out_features=256, bias=True)
        (3): Sigmoid()
      )
    )
    (2): BasicResidualSEBlock(
      (residual): Sequential(
        (0): Conv2d(256, 256, kernel_size=(3, 3), stride=(1, 1), padding=(1, 1))
        (1): BatchNorm2d(256, eps=1e-05, momentum=0.1, affine=True, track_running_stats=True)
        (2): ReLU(inplace=True)
        (3): Conv2d(256, 256, kernel_size=(3, 3), stride=(1, 1), padding=(1, 1))
        (4): BatchNorm2d(256, eps=1e-05, momentum=0.1, affine=True, track_running_stats=True)
        (5): ReLU(inplace=True)
      )
      (shortcut): Sequential()
      (squeeze): AdaptiveAvgPool2d(output_size=1)
      (excitation): Sequential(
        (0): Linear(in_features=256, out_features=16, bias=True)
        (1): ReLU(inplace=True)
        (2): Linear(in_features=16, out_features=256, bias=True)
        (3): Sigmoid()
      )
    )
    (3): BasicResidualSEBlock(
      (residual): Sequential(
        (0): Conv2d(256, 256, kernel_size=(3, 3), stride=(1, 1), padding=(1, 1))
        (1): BatchNorm2d(256, eps=1e-05, momentum=0.1, affine=True, track_running_stats=True)
        (2): ReLU(inplace=True)
        (3): Conv2d(256, 256, kernel_size=(3, 3), stride=(1, 1), padding=(1, 1))
        (4): BatchNorm2d(256, eps=1e-05, momentum=0.1, affine=True, track_running_stats=True)
        (5): ReLU(inplace=True)
      )
      (shortcut): Sequential()
      (squeeze): AdaptiveAvgPool2d(output_size=1)
      (excitation): Sequential(
        (0): Linear(in_features=256, out_features=16, bias=True)
        (1): ReLU(inplace=True)
        (2): Linear(in_features=16, out_features=256, bias=True)
        (3): Sigmoid()
      )
    )
    (4): BasicResidualSEBlock(
      (residual): Sequential(
        (0): Conv2d(256, 256, kernel_size=(3, 3), stride=(1, 1), padding=(1, 1))
        (1): BatchNorm2d(256, eps=1e-05, momentum=0.1, affine=True, track_running_stats=True)
        (2): ReLU(inplace=True)
        (3): Conv2d(256, 256, kernel_size=(3, 3), stride=(1, 1), padding=(1, 1))
        (4): BatchNorm2d(256, eps=1e-05, momentum=0.1, affine=True, track_running_stats=True)
        (5): ReLU(inplace=True)
      )
      (shortcut): Sequential()
      (squeeze): AdaptiveAvgPool2d(output_size=1)
      (excitation): Sequential(
        (0): Linear(in_features=256, out_features=16, bias=True)
        (1): ReLU(inplace=True)
        (2): Linear(in_features=16, out_features=256, bias=True)
        (3): Sigmoid()
      )
    )
    (5): BasicResidualSEBlock(
      (residual): Sequential(
        (0): Conv2d(256, 256, kernel_size=(3, 3), stride=(1, 1), padding=(1, 1))
        (1): BatchNorm2d(256, eps=1e-05, momentum=0.1, affine=True, track_running_stats=True)
        (2): ReLU(inplace=True)
        (3): Conv2d(256, 256, kernel_size=(3, 3), stride=(1, 1), padding=(1, 1))
        (4): BatchNorm2d(256, eps=1e-05, momentum=0.1, affine=True, track_running_stats=True)
        (5): ReLU(inplace=True)
      )
      (shortcut): Sequential()
      (squeeze): AdaptiveAvgPool2d(output_size=1)
      (excitation): Sequential(
        (0): Linear(in_features=256, out_features=16, bias=True)
        (1): ReLU(inplace=True)
        (2): Linear(in_features=16, out_features=256, bias=True)
        (3): Sigmoid()
      )
    )
  )
  (stage4): Sequential(
    (0): BasicResidualSEBlock(
      (residual): Sequential(
        (0): Conv2d(256, 512, kernel_size=(3, 3), stride=(2, 2), padding=(1, 1))
        (1): BatchNorm2d(512, eps=1e-05, momentum=0.1, affine=True, track_running_stats=True)
        (2): ReLU(inplace=True)
        (3): Conv2d(512, 512, kernel_size=(3, 3), stride=(1, 1), padding=(1, 1))
        (4): BatchNorm2d(512, eps=1e-05, momentum=0.1, affine=True, track_running_stats=True)
        (5): ReLU(inplace=True)
      )
      (shortcut): Sequential(
        (0): Conv2d(256, 512, kernel_size=(1, 1), stride=(2, 2))
        (1): BatchNorm2d(512, eps=1e-05, momentum=0.1, affine=True, track_running_stats=True)
      )
      (squeeze): AdaptiveAvgPool2d(output_size=1)
      (excitation): Sequential(
        (0): Linear(in_features=512, out_features=32, bias=True)
        (1): ReLU(inplace=True)
        (2): Linear(in_features=32, out_features=512, bias=True)
        (3): Sigmoid()
      )
    )
    (1): BasicResidualSEBlock(
      (residual): Sequential(
        (0): Conv2d(512, 512, kernel_size=(3, 3), stride=(1, 1), padding=(1, 1))
        (1): BatchNorm2d(512, eps=1e-05, momentum=0.1, affine=True, track_running_stats=True)
        (2): ReLU(inplace=True)
        (3): Conv2d(512, 512, kernel_size=(3, 3), stride=(1, 1), padding=(1, 1))
        (4): BatchNorm2d(512, eps=1e-05, momentum=0.1, affine=True, track_running_stats=True)
        (5): ReLU(inplace=True)
      )
      (shortcut): Sequential()
      (squeeze): AdaptiveAvgPool2d(output_size=1)
      (excitation): Sequential(
        (0): Linear(in_features=512, out_features=32, bias=True)
        (1): ReLU(inplace=True)
        (2): Linear(in_features=32, out_features=512, bias=True)
        (3): Sigmoid()
      )
    )
    (2): BasicResidualSEBlock(
      (residual): Sequential(
        (0): Conv2d(512, 512, kernel_size=(3, 3), stride=(1, 1), padding=(1, 1))
        (1): BatchNorm2d(512, eps=1e-05, momentum=0.1, affine=True, track_running_stats=True)
        (2): ReLU(inplace=True)
        (3): Conv2d(512, 512, kernel_size=(3, 3), stride=(1, 1), padding=(1, 1))
        (4): BatchNorm2d(512, eps=1e-05, momentum=0.1, affine=True, track_running_stats=True)
        (5): ReLU(inplace=True)
      )
      (shortcut): Sequential()
      (squeeze): AdaptiveAvgPool2d(output_size=1)
      (excitation): Sequential(
        (0): Linear(in_features=512, out_features=32, bias=True)
        (1): ReLU(inplace=True)
        (2): Linear(in_features=32, out_features=512, bias=True)
        (3): Sigmoid()
      )
    )
  )
  (linear): Linear(in_features=512, out_features=952, bias=True)
)

Evaluating:   0%|          | 0/687 [00:00<?, ?batch/s]
Evaluating:   0%|          | 1/687 [00:00<08:52,  1.29batch/s]
Evaluating:   0%|          | 2/687 [00:00<04:28,  2.55batch/s]
Evaluating:   0%|          | 3/687 [00:01<03:10,  3.59batch/s]
Evaluating:   1%|          | 4/687 [00:01<02:27,  4.63batch/s]
Evaluating:   1%|          | 5/687 [00:01<02:03,  5.51batch/s]
…
