/home/the-hung/miniforge3/envs/cinnamon/lib/python3.10/site-packages/torch/utils/data/dataloader.py:558: UserWarning: This DataLoader will create 32 worker processes in total. Our suggested max number of worker in current system is 4, which is smaller than what this DataLoader is going to create. Please be aware that excessive worker creation might get DataLoader running slow or even freeze, lower the worker number to avoid potential slowness/freeze if necessary.
  warnings.warn(_create_warning_msg(
CustomSEResNet(
  (pre): Sequential(
    (0): Conv2d(1, 64, kernel_size=(3, 3), stride=(1, 1), padding=(1, 1))
    (1): BatchNorm2d(64, eps=1e-05, momentum=0.1, affine=True, track_running_stats=True)
    (2): ReLU(inplace=True)
  )
  (stage1): Sequential(
    (0): CustomBasicResidualSEBlock(
      (residual): Sequential(
        (0): Conv2d(64, 64, kernel_size=(3, 3), stride=(1, 1), padding=(1, 1))
        (1): BatchNorm2d(64, eps=1e-05, momentum=0.1, affine=True, track_running_stats=True)
        (2): ReLU(inplace=True)
        (3): Conv2d(64, 64, kernel_size=(3, 3), stride=(1, 1), padding=(1, 1))
        (4): BatchNorm2d(64, eps=1e-05, momentum=0.1, affine=True, track_running_stats=True)
        (5): ReLU(inplace=True)
      )
      (shortcut): Sequential()
      (squeeze): AdaptiveAvgPool2d(output_size=1)
      (excitation): Sequential(
        (0): Linear(in_features=64, out_features=2, bias=True)
        (1): SiLU(inplace=True)
        (2): Dropout(p=0.5, inplace=False)
        (3): Linear(in_features=2, out_features=64, bias=True)
        (4): Sigmoid()
      )
    )
    (1): CustomBasicResidualSEBlock(
      (residual): Sequential(
        (0): Conv2d(64, 64, kernel_size=(3, 3), stride=(1, 1), padding=(1, 1))
        (1): BatchNorm2d(64, eps=1e-05, momentum=0.1, affine=True, track_running_stats=True)
        (2): ReLU(inplace=True)
        (3): Conv2d(64, 64, kernel_size=(3, 3), stride=(1, 1), padding=(1, 1))
        (4): BatchNorm2d(64, eps=1e-05, momentum=0.1, affine=True, track_running_stats=True)
        (5): ReLU(inplace=True)
      )
      (shortcut): Sequential()
      (squeeze): AdaptiveAvgPool2d(output_size=1)
      (excitation): Sequential(
        (0): Linear(in_features=64, out_features=2, bias=True)
        (1): SiLU(inplace=True)
        (2): Dropout(p=0.5, inplace=False)
        (3): Linear(in_features=2, out_features=64, bias=True)
        (4): Sigmoid()
      )
    )
    (2): CustomBasicResidualSEBlock(
      (residual): Sequential(
        (0): Conv2d(64, 64, kernel_size=(3, 3), stride=(1, 1), padding=(1, 1))
        (1): BatchNorm2d(64, eps=1e-05, momentum=0.1, affine=True, track_running_stats=True)
        (2): ReLU(inplace=True)
        (3): Conv2d(64, 64, kernel_size=(3, 3), stride=(1, 1), padding=(1, 1))
        (4): BatchNorm2d(64, eps=1e-05, momentum=0.1, affine=True, track_running_stats=True)
        (5): ReLU(inplace=True)
      )
      (shortcut): Sequential()
      (squeeze): AdaptiveAvgPool2d(output_size=1)
      (excitation): Sequential(
        (0): Linear(in_features=64, out_features=2, bias=True)
        (1): SiLU(inplace=True)
        (2): Dropout(p=0.5, inplace=False)
        (3): Linear(in_features=2, out_features=64, bias=True)
        (4): Sigmoid()
      )
    )
  )
  (stage2): Sequential(
    (0): CustomBasicResidualSEBlock(
      (residual): Sequential(
        (0): Conv2d(64, 128, kernel_size=(3, 3), stride=(2, 2), padding=(1, 1))
        (1): BatchNorm2d(128, eps=1e-05, momentum=0.1, affine=True, track_running_stats=True)
        (2): ReLU(inplace=True)
        (3): Conv2d(128, 128, kernel_size=(3, 3), stride=(1, 1), padding=(1, 1))
        (4): BatchNorm2d(128, eps=1e-05, momentum=0.1, affine=True, track_running_stats=True)
        (5): ReLU(inplace=True)
      )
      (shortcut): Sequential(
        (0): Conv2d(64, 128, kernel_size=(1, 1), stride=(2, 2))
        (1): BatchNorm2d(128, eps=1e-05, momentum=0.1, affine=True, track_running_stats=True)
      )
      (squeeze): AdaptiveAvgPool2d(output_size=1)
      (excitation): Sequential(
        (0): Linear(in_features=128, out_features=4, bias=True)
        (1): SiLU(inplace=True)
        (2): Dropout(p=0.5, inplace=False)
        (3): Linear(in_features=4, out_features=128, bias=True)
        (4): Sigmoid()
      )
    )
    (1): CustomBasicResidualSEBlock(
      (residual): Sequential(
        (0): Conv2d(128, 128, kernel_size=(3, 3), stride=(1, 1), padding=(1, 1))
        (1): BatchNorm2d(128, eps=1e-05, momentum=0.1, affine=True, track_running_stats=True)
        (2): ReLU(inplace=True)
        (3): Conv2d(128, 128, kernel_size=(3, 3), stride=(1, 1), padding=(1, 1))
        (4): BatchNorm2d(128, eps=1e-05, momentum=0.1, affine=True, track_running_stats=True)
        (5): ReLU(inplace=True)
      )
      (shortcut): Sequential()
      (squeeze): AdaptiveAvgPool2d(output_size=1)
      (excitation): Sequential(
        (0): Linear(in_features=128, out_features=4, bias=True)
        (1): SiLU(inplace=True)
        (2): Dropout(p=0.5, inplace=False)
        (3): Linear(in_features=4, out_features=128, bias=True)
        (4): Sigmoid()
      )
    )
    (2): CustomBasicResidualSEBlock(
      (residual): Sequential(
        (0): Conv2d(128, 128, kernel_size=(3, 3), stride=(1, 1), padding=(1, 1))
        (1): BatchNorm2d(128, eps=1e-05, momentum=0.1, affine=True, track_running_stats=True)
        (2): ReLU(inplace=True)
        (3): Conv2d(128, 128, kernel_size=(3, 3), stride=(1, 1), padding=(1, 1))
        (4): BatchNorm2d(128, eps=1e-05, momentum=0.1, affine=True, track_running_stats=True)
        (5): ReLU(inplace=True)
      )
      (shortcut): Sequential()
      (squeeze): AdaptiveAvgPool2d(output_size=1)
      (excitation): Sequential(
        (0): Linear(in_features=128, out_features=4, bias=True)
        (1): SiLU(inplace=True)
        (2): Dropout(p=0.5, inplace=False)
        (3): Linear(in_features=4, out_features=128, bias=True)
        (4): Sigmoid()
      )
    )
    (3): CustomBasicResidualSEBlock(
      (residual): Sequential(
        (0): Conv2d(128, 128, kernel_size=(3, 3), stride=(1, 1), padding=(1, 1))
        (1): BatchNorm2d(128, eps=1e-05, momentum=0.1, affine=True, track_running_stats=True)
        (2): ReLU(inplace=True)
        (3): Conv2d(128, 128, kernel_size=(3, 3), stride=(1, 1), padding=(1, 1))
        (4): BatchNorm2d(128, eps=1e-05, momentum=0.1, affine=True, track_running_stats=True)
        (5): ReLU(inplace=True)
      )
      (shortcut): Sequential()
      (squeeze): AdaptiveAvgPool2d(output_size=1)
      (excitation): Sequential(
        (0): Linear(in_features=128, out_features=4, bias=True)
        (1): SiLU(inplace=True)
        (2): Dropout(p=0.5, inplace=False)
        (3): Linear(in_features=4, out_features=128, bias=True)
        (4): Sigmoid()
      )
    )
  )
  (stage3): Sequential(
    (0): CustomBasicResidualSEBlock(
      (residual): Sequential(
        (0): Conv2d(128, 256, kernel_size=(3, 3), stride=(2, 2), padding=(1, 1))
        (1): BatchNorm2d(256, eps=1e-05, momentum=0.1, affine=True, track_running_stats=True)
        (2): ReLU(inplace=True)
        (3): Conv2d(256, 256, kernel_size=(3, 3), stride=(1, 1), padding=(1, 1))
        (4): BatchNorm2d(256, eps=1e-05, momentum=0.1, affine=True, track_running_stats=True)
        (5): ReLU(inplace=True)
      )
      (shortcut): Sequential(
        (0): Conv2d(128, 256, kernel_size=(1, 1), stride=(2, 2))
        (1): BatchNorm2d(256, eps=1e-05, momentum=0.1, affine=True, track_running_stats=True)
      )
      (squeeze): AdaptiveAvgPool2d(output_size=1)
      (excitation): Sequential(
        (0): Linear(in_features=256, out_features=8, bias=True)
        (1): SiLU(inplace=True)
        (2): Dropout(p=0.5, inplace=False)
        (3): Linear(in_features=8, out_features=256, bias=True)
        (4): Sigmoid()
      )
    )
    (1): CustomBasicResidualSEBlock(
      (residual): Sequential(
        (0): Conv2d(256, 256, kernel_size=(3, 3), stride=(1, 1), padding=(1, 1))
        (1): BatchNorm2d(256, eps=1e-05, momentum=0.1, affine=True, track_running_stats=True)
        (2): ReLU(inplace=True)
        (3): Conv2d(256, 256, kernel_size=(3, 3), stride=(1, 1), padding=(1, 1))
        (4): BatchNorm2d(256, eps=1e-05, momentum=0.1, affine=True, track_running_stats=True)
        (5): ReLU(inplace=True)
      )
      (shortcut): Sequential()
      (squeeze): AdaptiveAvgPool2d(output_size=1)
      (excitation): Sequential(
        (0): Linear(in_features=256, out_features=8, bias=True)
        (1): SiLU(inplace=True)
        (2): Dropout(p=0.5, inplace=False)
        (3): Linear(in_features=8, out_features=256, bias=True)
        (4): Sigmoid()
      )
    )
    (2): CustomBasicResidualSEBlock(
      (residual): Sequential(
        (0): Conv2d(256, 256, kernel_size=(3, 3), stride=(1, 1), padding=(1, 1))
        (1): BatchNorm2d(256, eps=1e-05, momentum=0.1, affine=True, track_running_stats=True)
        (2): ReLU(inplace=True)
        (3): Conv2d(256, 256, kernel_size=(3, 3), stride=(1, 1), padding=(1, 1))
        (4): BatchNorm2d(256, eps=1e-05, momentum=0.1, affine=True, track_running_stats=True)
        (5): ReLU(inplace=True)
      )
      (shortcut): Sequential()
      (squeeze): AdaptiveAvgPool2d(output_size=1)
      (excitation): Sequential(
        (0): Linear(in_features=256, out_features=8, bias=True)
        (1): SiLU(inplace=True)
        (2): Dropout(p=0.5, inplace=False)
        (3): Linear(in_features=8, out_features=256, bias=True)
        (4): Sigmoid()
      )
    )
    (3): CustomBasicResidualSEBlock(
      (residual): Sequential(
        (0): Conv2d(256, 256, kernel_size=(3, 3), stride=(1, 1), padding=(1, 1))
        (1): BatchNorm2d(256, eps=1e-05, momentum=0.1, affine=True, track_running_stats=True)
        (2): ReLU(inplace=True)
        (3): Conv2d(256, 256, kernel_size=(3, 3), stride=(1, 1), padding=(1, 1))
        (4): BatchNorm2d(256, eps=1e-05, momentum=0.1, affine=True, track_running_stats=True)
        (5): ReLU(inplace=True)
      )
      (shortcut): Sequential()
      (squeeze): AdaptiveAvgPool2d(output_size=1)
      (excitation): Sequential(
        (0): Linear(in_features=256, out_features=8, bias=True)
        (1): SiLU(inplace=True)
        (2): Dropout(p=0.5, inplace=False)
        (3): Linear(in_features=8, out_features=256, bias=True)
        (4): Sigmoid()
      )
    )
    (4): CustomBasicResidualSEBlock(
      (residual): Sequential(
        (0): Conv2d(256, 256, kernel_size=(3, 3), stride=(1, 1), padding=(1, 1))
        (1): BatchNorm2d(256, eps=1e-05, momentum=0.1, affine=True, track_running_stats=True)
        (2): ReLU(inplace=True)
        (3): Conv2d(256, 256, kernel_size=(3, 3), stride=(1, 1), padding=(1, 1))
        (4): BatchNorm2d(256, eps=1e-05, momentum=0.1, affine=True, track_running_stats=True)
        (5): ReLU(inplace=True)
      )
      (shortcut): Sequential()
      (squeeze): AdaptiveAvgPool2d(output_size=1)
      (excitation): Sequential(
        (0): Linear(in_features=256, out_features=8, bias=True)
        (1): SiLU(inplace=True)
        (2): Dropout(p=0.5, inplace=False)
        (3): Linear(in_features=8, out_features=256, bias=True)
        (4): Sigmoid()
      )
    )
    (5): CustomBasicResidualSEBlock(
      (residual): Sequential(
        (0): Conv2d(256, 256, kernel_size=(3, 3), stride=(1, 1), padding=(1, 1))
        (1): BatchNorm2d(256, eps=1e-05, momentum=0.1, affine=True, track_running_stats=True)
        (2): ReLU(inplace=True)
        (3): Conv2d(256, 256, kernel_size=(3, 3), stride=(1, 1), padding=(1, 1))
        (4): BatchNorm2d(256, eps=1e-05, momentum=0.1, affine=True, track_running_stats=True)
        (5): ReLU(inplace=True)
      )
      (shortcut): Sequential()
      (squeeze): AdaptiveAvgPool2d(output_size=1)
      (excitation): Sequential(
        (0): Linear(in_features=256, out_features=8, bias=True)
        (1): SiLU(inplace=True)
        (2): Dropout(p=0.5, inplace=False)
        (3): Linear(in_features=8, out_features=256, bias=True)
        (4): Sigmoid()
      )
    )
  )
  (stage4): Sequential(
    (0): CustomBasicResidualSEBlock(
      (residual): Sequential(
        (0): Conv2d(256, 512, kernel_size=(3, 3), stride=(2, 2), padding=(1, 1))
        (1): BatchNorm2d(512, eps=1e-05, momentum=0.1, affine=True, track_running_stats=True)
        (2): ReLU(inplace=True)
        (3): Conv2d(512, 512, kernel_size=(3, 3), stride=(1, 1), padding=(1, 1))
        (4): BatchNorm2d(512, eps=1e-05, momentum=0.1, affine=True, track_running_stats=True)
        (5): ReLU(inplace=True)
      )
      (shortcut): Sequential(
        (0): Conv2d(256, 512, kernel_size=(1, 1), stride=(2, 2))
        (1): BatchNorm2d(512, eps=1e-05, momentum=0.1, affine=True, track_running_stats=True)
      )
      (squeeze): AdaptiveAvgPool2d(output_size=1)
      (excitation): Sequential(
        (0): Linear(in_features=512, out_features=16, bias=True)
        (1): SiLU(inplace=True)
        (2): Dropout(p=0.5, inplace=False)
        (3): Linear(in_features=16, out_features=512, bias=True)
        (4): Sigmoid()
      )
    )
    (1): CustomBasicResidualSEBlock(
      (residual): Sequential(
        (0): Conv2d(512, 512, kernel_size=(3, 3), stride=(1, 1), padding=(1, 1))
        (1): BatchNorm2d(512, eps=1e-05, momentum=0.1, affine=True, track_running_stats=True)
        (2): ReLU(inplace=True)
        (3): Conv2d(512, 512, kernel_size=(3, 3), stride=(1, 1), padding=(1, 1))
        (4): BatchNorm2d(512, eps=1e-05, momentum=0.1, affine=True, track_running_stats=True)
        (5): ReLU(inplace=True)
      )
      (shortcut): Sequential()
      (squeeze): AdaptiveAvgPool2d(output_size=1)
      (excitation): Sequential(
        (0): Linear(in_features=512, out_features=16, bias=True)
        (1): SiLU(inplace=True)
        (2): Dropout(p=0.5, inplace=False)
        (3): Linear(in_features=16, out_features=512, bias=True)
        (4): Sigmoid()
      )
    )
    (2): CustomBasicResidualSEBlock(
      (residual): Sequential(
        (0): Conv2d(512, 512, kernel_size=(3, 3), stride=(1, 1), padding=(1, 1))
        (1): BatchNorm2d(512, eps=1e-05, momentum=0.1, affine=True, track_running_stats=True)
        (2): ReLU(inplace=True)
        (3): Conv2d(512, 512, kernel_size=(3, 3), stride=(1, 1), padding=(1, 1))
        (4): BatchNorm2d(512, eps=1e-05, momentum=0.1, affine=True, track_running_stats=True)
        (5): ReLU(inplace=True)
      )
      (shortcut): Sequential()
      (squeeze): AdaptiveAvgPool2d(output_size=1)
      (excitation): Sequential(
        (0): Linear(in_features=512, out_features=16, bias=True)
        (1): SiLU(inplace=True)
        (2): Dropout(p=0.5, inplace=False)
        (3): Linear(in_features=16, out_features=512, bias=True)
        (4): Sigmoid()
      )
    )
  )
  (linear1): Linear(in_features=512, out_features=952, bias=True)
)
Evaluating:   0%|          | 0/687 [00:00<?, ?batch/s]Evaluating:   0%|          | 1/687 [00:01<16:31,  1.45s/batch]Evaluating:   0%|          | 3/687 [00:01<04:45,  2.39batch/s]Evaluating:   1%|          | 5/687 [00:01<02:38,  4.30batch/s]Evaluating:   1%|          | 7/687 [00:01<01:48,  6.29batch/s]Evaluating:   1%|▏         | 9/687 [00:01<01
…
